Codes/ai8x-synthesis/model.pth (torch, 88244 bytes, 6 tensors)

conv1.weight f4 [16, 3, 3, 3]
-0.096576974 0.049736705 0.22551098 0.008936641 0.10336513 0.22054026 0.027729154 0.057710797
-0.21033281 -0.04762517 0.04840836 -0.11427186 -0.32601234 -0.018501922 0.051067773 -0.04488877
-0.15073971 0.009486756 -0.16132909 0.08129865 0.12718199 -0.26495323 0.1779568 0.20940232
-0.010715854 0.14243746 -0.27181998 -0.047523443 -0.060952276 0.08958152 -0.21522608 -0.18470936
-0.027600985 -0.27864328 -0.1538212 0.23277825 -0.13494568 0.123082556 0.16786574 0.15533961
-0.003779913 0.19350605 -0.16578451 0.09628846 0.18215892 0.064314164 -0.24832572 -0.17068176
0.13024591 0.1224187 0.017180178 0.055346344 0.06835263 0.10624859 0.020094676 0.09308829
-0.10582013 -0.038454346 0.01387875 0.117418274 0.18257396 0.08098896 -0.16303378 0.13274795
0.0026995456 0.24734645 0.025466153 -0.12900896 0.24019252 -0.051807556 -0.12393025 -0.08964702
-0.22593871 0.043186888 0.073101595 0.07396024 -0.2602382 0.01948205 -0.23791152 -0.25330538
0.03264451 -0.052308735 -0.19210473 0.057994496 0.0014219193 -0.22297561 -0.11851855 -0.03042188
-0.16450557 0.05714559 0.12816966 0.2823019 -0.05335691 0.23131722 0.078423426 0.15634476
0.119889036 0.044810824 0.273353 -0.07198999 0.13680555 -0.058942195 0.088041626 -0.0073490883
-0.067217134 -0.24110368 -0.10314184 -0.20485426 0.029550258 0.020705422 0.1461411 0.19081855
0.1296019 0.12908804 0.13138492 0.044101663 0.09715909 0.05347877 0.12830512 -0.15326664
-0.020290943 0.10648154 0.11975783 -0.013779386 0.12916261 0.07083521 0.14342512 -0.28169438
-0.28291366 -0.16511513 -0.239575 -0.18137063 -0.12226259 0.06601944 0.06367729 0.14690945
0.2970296 -0.16373187 0.12684093 0.19259164 0.042586 -0.15556166 0.08776136 -0.27717587
0.14106357 0.13888136 -0.17049171 0.034035046 0.23100708 0.0071859113 -0.044203527 -0.10645232
-0.030952686 -0.057948757 0.027089445 -0.03140657 -0.145449 -0.30084044 -0.1770914 -0.0036956328
0.066632845 -0.06335745 0.23402311 0.0799741 -0.044109806 -0.046427656 0.277872 0.1537989
0.2464738 0.059167314 0.16271718 -0.12509453 -0.17526352 -0.08712287 -0.082598716 -0.101709016
0.04366253 -0.1607749 -0.11159985 -0.14947517 0.13546415 -0.16388391 0.051797967 0.13461782
-0.13899417 -0.060607202 0.051553275 -0.15218838 -0.17762129 -0.11012629 0.113484204 0.22845599
0.05787856 0.06392165 -0.05386935 0.119484186 0.18192898 -0.14385939 -0.08992541 -0.09337444
-0.1262994 -0.21349233 -0.20471726 0.06882169 0.11244073 -0.0036569044 0.17130095 -0.25644138
-0.2926743 0.07076406 0.09577491 -0.15942454 -0.013173974 0.18831801 0.17781454 -0.09320458
-0.2285144 0.13549465 -0.16056268 -0.11237183 -0.11083915 -0.025699144 -0.103109024 0.20429237
-0.16584659 0.08676807 0.16211082 -0.014614068 0.271475 0.24887866 0.047703546 0.21445149
0.15375157 -0.08953086 -0.121904835 0.016871387 0.021068567 -0.18134205 0.0011251641 -0.08579506
-0.032917745 0.07970624 -0.21548612 -0.0133701805 -0.10030174 0.21421981 0.076672256 0.00028195692
-0.07907074 0.086457826 -0.2719568 0.015256461 -0.24059634 0.24964978 -0.008804172 -0.017427761
00000000: 26ca c5bd b7b8 4b3d 5aec 663e fd6a 123c
00000010: 19b1 d33d 4ed5 613e 4028 e33c 2862 6c3d
00000020: 7c61 57be 9c12 43bd d847 463d 5d07 eabd
00000030: 17eb a6be 5891 97bc 712c 513d 49dd 37bd
00000040: 835b 1abe 576e 1b3c 7433 25be e87f a63d
00000050: ff3b 023e f3a7 87be 4f3a 363e 906d 563e
00000060: 8d91 2fbc 20db 113e fd2b 8bbe f1a7 42bd
00000070: 18a9 79bd 8476 b73d 3a64 5cbe 7324 3dbe
00000080: 761b e2bc 55aa 8ebe 4e83 1dbe 6c5d 6e3e
00000090: 332f 0abe b512 fc3d ffe4 2b3e 5911 1f3e
000000a0: 6bb8 77bb 7326 463e 6ac3 29be e232 c53d
000000b0: de87 3a3e 25b7 833d 1949 7ebe 33c7 2ebe
000000c0: 2f5f 053e a8b6 fa3d 72bd 8c3c d9b2 623d
000000d0: 77fc 8b3d dc98 d93d 979d a43c 13a5 be3d
000000e0: 39b8 d8bd 4e82 1dbd b263 633c fe78 f03d
000000f0: abf4 3a3e 8add a53d 54f2 26be 14ef 073e
00000100: dcea 303b 6348 7d3e 659e d03c ed1a 04be
00000110: 07f5 753e 2934 54bd 25cf fdbd db98 b7bd
00000120: 7a5c 67be bce4 303d 4ab6 953d 7778 973d
00000130: f13d 85be d298 9f3c 149f 73be 3eb1 81be
00000140: 40b6 053d af41 56bd 1ab7 44be a38b 6d3d
00000150: b25f ba3a b853 64be dbb9 f2bd 4e37 f9bc
00000160: 2674 28be 7f11 6a3d e83e 033e e089 903e
00000170: c68c 5abd 6cde 6c3e 769c a03d d718 203e
00000180: 6288 f53d 8e8b 373d edf4 8b3e 7d6f 93bd
00000190: c116 0c3e 5f6d 71bd 2b4f b43d 9fd0 f0bb
000001a0: 23a9 89bd e2e3 76be 073c d3bd 51c5 51be
000001b0: 6213 f23c 6b9e a93c 03a6 153e f065 433e
000001c0: 5cb6 043e a82f 043e c589 063e f2a3 343d
000001d0: 58fb c63d 8e0c 5b3d 6b62 033e eef1 1cbe
000001e0: 3139 a6bc fe12 da3d 9843 f53d efc2 61bc
000001f0: 3443 043e 0d12 913d 09de 123e 3f3a 90be
00000200: 0fda 90be f113 29be 2653 75be 39b9 39be
00000210: cf64 fabd 3335 873d 3d69 823d 6e6f 163e
00000220: 4414 983e 54a9 27be 97e2 013e be36 453e
00000230: a86e 2e3d 8e4b 1fbe 3abc b33d ffe9 8dbe
00000240: f872 103e ea36 0e3e 6195 2ebe 5568 0b3d
00000250: 1f8d 6c3e cb77 eb3b c20e 35bd ad03 dabd
00000260: 7d90 fdbc ad5b 6dbd afea dd3c 2da4 00bd
00000270: 95f0 14be c207 9abe 7357 35be 6e32 72bb
00000280: cd76 883d 8dc1 81bd c1a3 6f3e 76c9 a33d
00000290: 7cac 34bd ed2a 3ebd 3d45 8e3e 757d 1d3e
000002a0: a163 7c3e 6d59 723d 559f 263e c818 00be
000002b0: 4878 33be 7a6d b2bd 8429 a9bd d14c d0bd
000002c0: 7bd7 323d 2da2 24be 768e e4bd 0510 19be
000002d0: 1db7 0a3e 2fd1 27be 1b2a 543d 41d9 093e
000002e0: 7d54 0ebe 423f 78bd 8729 533d 45d7 1bbe
000002f0: 5be2 35be e489 e1bd 686a e83d 5ef0 693e
00000300: 1212 6d3d 5be9 823d 1ca6 5cbd 20b4 f43d
00000310: 974b 3a3e e04f 13be d02a b8bd 193b bfbd
00000320: a154 01be bc9d 5abe 67a1 51be 63f2 8c3d
00000330: 5347 e63d ada8 6fbb 8469 2f3e 494c 83be
00000340: 68d9 95be bfec 903d a325 c43d 3040 23be
00000350: a7d7 57bc 70d6 403e 0415 363e 0be2 bebd
00000360: aeff 69be 1cbf 0a3e 8b6a 24be 3423 e6bd
00000370: a3ff e2bd 0387 d2bc d32a d3bd 0532 513e
00000380: b0d3 29be 75b3 b13d 6100 263e d86f 6fbc
00000390: c5fe 8a3e 0cda 7e3e cb64 433d 2c99 5b3e
000003a0: 0d71 1d3e f55b b7bd 3ea9 f9bd dd35 8a3c
000003b0: fd97 ac3c bbb1 39be 3e7a 933a 52b5 afbd
000003c0: c2d4 06bd 063d a33d 65a8 5cbe 9a0e 5bbc
000003d0: 006b cdbd 705c 5b3e 5806 9d3d 9ed3 9339
000003e0: d7ef a1bd cd10 b13d ec3d 8bbe 3cf6 793c
000003f0: e35e 76be 31a4 7f3e 603f 10bc aac4 8ebc

conv1.bias f4 [16]
-0.15414977 -0.1072868 -0.042452004 0.012095744 0.13886541 0.07206009 -0.0478799 -0.1786645
0.051444057 -0.11203823 -0.13481817 -0.1024122 -0.046827354 -0.16169071 -0.16001222 0.028557446
00000000: 70d9 1dbe 2fb9 dbbd 27e2 2dbd 3a2d 463c
00000010: bc32 0e3e 3e94 933d b71d 44bd d4f3 36be
00000020: 01b7 523d 4d74 e5bd c60d 0abe 7dbd d1bd
00000030: 0ace 3fbd 4092 25be 3eda 23be 4ef1 e93c

conv2.weight f4 [32, 16, 3, 3]
-0.041916788 -0.074576065 -0.032164346 -0.1157068 -0.104527675 -0.1270803 0.101491846 0.149038
-0.06698678 -0.043876465 0.100764684 -0.014974469 -0.12474689 0.034651645 -0.1332529 -0.030047592
0.0797337 -0.012180282 -0.075050406 0.07776415 -0.052870903 -0.09804322 -0.022083694 -0.059236147
-0.086515136 0.025321888 -0.009272308 -0.0036369548 0.20931011 0.20727171 -0.21921682 -0.063770846
-0.12472764 -0.21153146 -0.1426024 -0.14018808 0.03006413 0.061983917 0.0369433 0.05278027
-0.040186893 0.038039263 0.060193982 0.066314235 0.06563117 0.10612589 0.0075967503 0.09412606
0.032410733 -0.05498012 0.027201472 -0.046690986 0.0038088292 0.04371475 0.021303272 0.051042303
-0.04550897 -0.001007892 0.025483608 0.0478164 -0.08511282 0.011809853 -0.0349015 0.021148197
0.04147903 0.08229895 0.05513975 -0.027082743 0.08902665 -0.13745418 -0.15668271 -0.15563525
0.08337028 0.044997647 0.15714099 -0.11690507 -0.059505142 -0.10388787 -0.22286195 -0.14998487
-0.12176523 -0.13997824 -0.064654306 -0.24875855 -0.35213587 -0.21449071 -0.32543483 -0.122458935
-0.12860851 -0.15288725 -0.1738087 -0.068575755 0.019667258 -0.05921601 0.08222378 -0.051451523
-0.03339763 0.010590608 0.0028693406 0.1656969 0.17484726 0.077392004 -0.023599809 -0.13563812
-0.025712118 -0.13619815 -0.13683921 -0.23115614 0.17052405 0.06739849 0.10866142 0.11769853
0.05710153 -0.018531095 -0.05928769 -0.15146162 -0.14616664 0.12653871 0.32896194 0.22570644
-0.1907716 -0.09680241 -0.033934128 -0.16746609 -0.20565657 -0.23729739 0.010469659 -0.0113951545
0.033157002 -0.11314855 -0.07386506 -0.14171028 -0.10551326 0.050777495 0.010170763 -0.032800086
0.07701554 0.12077665 -0.056146268 0.053133857 0.022985289 -0.13803412 0.019268671 -0.07666453
0.11911781 0.041164856 0.10059593 0.05959815 0.021385483 0.012073442 -0.19691053 -0.062757134
-0.09452811 -0.10105099 -0.044514675 0.0054802406 -0.068626426 -0.17621677 -0.044775505 -0.11931565
3.478764e-05 0.05365735 -0.009820081 0.008885024 -0.06920322 -0.05054876 -0.036642287 -0.097382486
-0.081266135 -0.097891174 -0.119255975 -0.13474143 -0.056249637 -0.19407731 -0.09965699 -0.15873179
-0.13483828 0.09325888 0.19251822 0.18027456 0.079886466 0.00974413 -0.07186074 -0.020069826
-0.021778133 -0.1372001 -0.12525839 0.00433854 0.07934521 0.049956154 0.0635545 0.06381238
0.05732665 0.02022879 -0.07923372 -0.012924743 -0.14826687 -0.06770076 0.10662653 0.07458294
0.10079686 -0.014750762 0.04306324 0.034178335 -0.10976001 -0.09801208 0.009648599 -0.012905376
-0.138453 -0.15773916 0.0971072 0.04098551 0.14181615 0.27414945 0.20713198 0.26113248
-0.16591448 -0.31459618 -0.26602015 -0.098373994 -0.15471329 -0.270446 0.15608338 0.061585814
0.111429356 -0.024081158 -0.09837685 -0.034710247 -0.14346476 -0.15018834 -0.32325387 0.055362217
0.014086258 -0.023466766 -0.10932964 -0.08404617 -0.011487231 0.102794856 -0.06326318 -0.2115929
0.24405587 0.014395516 0.0010535213 -0.163073 -0.17726539 -0.018595327 0.020922538 0.07062943
-0.10276158 0.13874651 0.009328715 0.07052912 -0.046146248 -0.088126495 -0.15260948 -0.09742873
00000000: f0b0 2bbd 56bb 98bd c3be 03bd b0f7 ecbd
00000010: 9b12 d6bd 5721 02be f5da cf3d 6b9d 183e
00000020: 5d30 89bd cfb7 33bd b75d ce3d 7a57 75bc
00000030: 4c7b ffbd e2ee 0d3d 7373 08be 5e26 f6bc
00000040: 6c4b a33d ce8f 47bc 07b4 99bd d042 9f3d
00000050: 298f 58bd e2ca c8bd dde8 b4bc 9aa1 72bd
00000060: d92e b1bd d96f cf3c e1ea 17bc fa59 6ebb
00000070: 6455 563e 093f 543e 607a 60be 4a9a 82bd
00000080: 3471 ffbd b49b 58be 5d06 12be 778d 0fbe
00000090: 0d49 f63c d9e2 7d3d dc51 173d 2030 583d
000000a0: 039b 24bd 0fcf 1b3d f78d 763d c2cf 873d
000000b0: a369 863d 8858 d93d 29ee f83b 2ac5 c03d
000000c0: 1ec1 043d d632 61bd 9fd5 de3c 0c3f 3fbd
000000d0: 8d9d 793b 3d0e 333d 3384 ae3c bc11 513d
000000e0: 9d67 3abd 3e1b 84ba 00c3 d03c 21db 433d
000000f0: a14f aebd 1d7e 413c e0f4 0ebd fc3e ad3c
00000100: eae5 293d 5a8c a83d 38da 613d a1dc ddbc
00000110: 9b53 b63d cac0 0cbe 6f71 20be d95e 1fbe
00000120: 0abe aa3d 744f 383d 91e9 203e ed6b efbd
00000130: aabb 73bd 2ac3 d4bd ec35 64be a295 19be
00000140: 0d60 f9bd 7556 0fbe 7a69 84bd 90ba 7ebe
00000150: 274b b4be 74a3 5bbe 659f a6be c0cb fabd
00000160: f3b1 03be 7a8e 1cbe e8fa 31be 7271 8cbd
00000170: 3b1d a13c 7d8c 72bd f164 a83d d5be 52bd
00000180: f4cb 08bd 3b84 2d3c 8c0b 3c3b 73ac 293e
00000190: 290b 333e b37f 9e3d 6354 c1bc b8e4 0abe
000001a0: 38a2 d2bc 8777 0bbe 941f 0cbe 32b4 6cbe
000001b0: db9d 2e3e 3808 8a3d e189 de3d ed0b f13d
000001c0: 4be3 693d 86ce 97bc a6d7 72bd c118 1bbe
000001d0: b5ac 15be 5d93 013e b36d a83e 971f 673e
000001e0: a159 43be 5840 c6bd 83fe 0abd 3b7c 2bbe
000001f0: a397 52be 16fe 72be ef88 2b3c beb2 3abc
00000200: a3cf 073d 6dba e7bd 9146 97bd 801c 11be
00000210: 5617 d8bd 10fc 4f3d 46a3 263c 6259 06bd
00000220: 53ba 9d3d c059 f73d a1f9 65bd e3a2 593d
00000230: a54b bc3c d158 0dbe 55d9 9d3c 4b02 9dbd
00000240: 0af4 f33d 7b9c 283d 3d05 ce3d 311d 743d
00000250: 9c30 af3c b0cf 453c eaa2 49be d086 80bd
00000260: f497 c1bd d2f3 cebd 0555 36bd 9793 b33b
00000270: 038c 8cbd 2b72 34be 8566 37bd c35b f4bd
00000280: f2e8 1138 cfc7 5b3d 68e4 20bc 7e92 113c
00000290: 6bba 8dbd 370c 4fbd 3916 16bd 7870 c7bd
000002a0: dc6e a6bd 2b7b c8bd 7a3c f4bd a8f9 09be
000002b0: 0566 66bd 34bc 46be f718 ccbd 968a 22be
000002c0: 0c13 0abe 83fe be3d 7f23 453e e599 383e
000002d0: 849b a33d d8a5 1f3c b92b 93bd 7a69 a4bc
000002e0: 0e68 b2bc 2f7e 0cbe bc43 00be 502a 8e3b
000002f0: be7f a23d d39e 4c3d dd28 823d 11b0 823d
00000300: 59cf 6a3d d9b6 a53c 4a45 a2bd 4dc2 53bc
00000310: 45d3 17be b2a6 8abd 035f da3d f1be 983d
00000320: 966e ce3d 2ead 71bc 1463 303d 95fe 0b3d
00000330: dbc9 e0bd 8fba c8bd 2815 1e3c 1271 53bc
00000340: a0c6 0dbe 6086 21be 24e0 c63d 6ce0 273d
00000350: 4138 113e 515d 8c3e 681a 543e 28b3 853e
00000360: 7ce5 29be c012 a1be cb33 88be 4e78 c9bd
00000370: 296d 1ebe e677 8abe 52d4 1f3e 6841 7c3d
00000380: 1335 e43d d945 c5bc cd79 c9bd 552c 0ebd
00000390: 6de8 12be f9ca 19be 8881 a5be 7ec3 623d
000003a0: 0cca 663c 603d c0bc 38e8 dfbd 6620 acbd
000003b0: f034 3cbc 1c86 d23d 2090 81bd cfab 58be
000003c0: c8e9 793e 2cdb 6b3c 4f16 8a3a 9cfc 26be
000003d0: 0f85 35be 3a55 98bc be65 ab3c 2aa6 903d
000003e0: aa74 d2bd 9113 0e3e 77d7 183c 9271 903d
000003f0: d903 3dbd aa7b b4bd a945 1cbe b788 c7bd

conv2.bias f4 [32]
0.021694189 -0.24664384 0.14186189 -0.079687625 -0.142117 0.0925978 -0.05056356 -0.082763985
-0.08094602 0.09170135 -0.072300054 -0.12347465 -0.1114003 -0.048680045 0.112549685 -0.00466177
0.053301364 -0.15772767 -0.1122128 -0.073393084 -0.13345706 -0.08725041 0.14609101 -0.048788104
-0.10661508 0.1595732 0.030327223 -0.1378437 -0.07637881 -0.06596279 0.06554654 0.016598396
00000000: 03b8 b13c 3490 7cbe 3e44 113e 4433 a3bd
00000010: 1e87 11be eaa3 bd3d bc1b 4fbd 2a80 a9bd
00000020: 07c7 a5bd ebcd bb3d 0d12 94bd 47e0 fcbd
00000030: d725 e4bd ba64 47bd 7380 e63d c3c1 98bb
00000040: 8852 5a3d 5d83 21be d3cf e5bd 1d4f 96bd
00000050: f8a8 08be 58b0 b2bd e298 153e 09d6 47bd
00000060: 0259 dabd 2867 233e cc70 f83c e626 0dbe
00000070: 7e6c 9cbd 8017 87bd 443d 863d 5cf9 873c

fc.weight f4 [2, 8192]
-0.14690042 2.3373359e-05 -0.0065616514 0.0113085685 -0.15487367 -0.18490097 -0.14230761 -0.1951212
-0.038054436 0.0031022849 -0.11392711 -0.17503347 -0.036646813 0.039651692 0.09137747 -0.013720283
-0.15940125 -0.12097074 0.04849426 0.0070175594 -0.09021812 0.052495368 0.17983434 0.14880167
0.049773064 0.024561858 -0.0016689645 -0.06061162 -0.024384122 0.11112255 0.12520209 0.06333516
0.0035824534 0.005723092 0.016470836 0.022499258 -0.10747233 -0.016801868 0.09020285 0.17498891
0.10786867 0.026088392 0.035959233 0.035905022 0.042930555 -0.053099405 -0.02627589 -0.12503959
0.057209905 0.08169385 0.05873516 0.07848335 -0.02603291 -0.013107843 -0.0005309837 0.021099955
0.04308217 0.06869504 0.13592681 0.036762074 -0.064929485 -0.04634065 -0.0027681428 -0.07922197
-0.025214678 0.038585894 -0.035717983 0.02435917 -0.003805535 0.078107305 -0.08354965 0.022036275
0.040212706 0.08910073 0.07185723 0.024073422 -0.11670804 -0.105902664 -0.025258573 -0.00396647
-0.096121095 -0.05006993 -0.03339238 0.11004478 0.10685815 0.09335731 -0.10829967 -0.10614009
-0.044954292 -0.016746053 0.0059373365 0.016318075 0.05995198 0.012018983 0.11872588 -0.04059285
-0.066695854 -0.049717363 0.054387182 0.11601078 -0.00864517 0.0077102403 -0.024606358 0.011036141
-0.07862922 0.03873733 -0.00096210476 0.08941139 0.07553347 0.095794566 0.07361513 0.061710097
0.035959978 -0.09488776 0.03873703 0.09422902 -0.038915668 0.032624118 0.04974883 0.04513353
0.052192878 0.07853653 -0.0023968127 -0.08165027 -0.04020731 -0.019541528 -0.12901989 -0.13176839
0.06876592 0.08117265 0.027977727 0.054079488 0.052587003 -0.05118575 0.12629223 0.06977026
0.12433457 0.1793763 0.019316904 -0.04207253 0.079841524 -0.0072193323 -0.007909843 -0.0603721
-0.004879487 -0.033539828 0.039105605 0.11435817 0.05684967 -0.031253405 -0.03578484 0.006472097
-0.019186713 0.17653711 0.06431612 -0.019133413 -0.1056418 -0.018201534 -0.0021495211 -0.14847104
0.054077905 0.062104125 0.13468023 0.06603725 0.100135274 0.0056989063 -0.06774433 0.08709135
0.05035055 0.033825487 -0.00021453234 0.09634835 -0.0373899 -0.047656637 -0.02919807 -0.11237877
-0.052357413 0.036145996 0.04123803 -0.03135134 0.065527864 -0.015878137 -0.00883971 0.08647118
0.062477123 0.067958385 0.026993748 0.0391553 0.015972033 0.003139343 -0.0062148874 -0.029834442
0.0025108394 0.04835297 0.008191991 -0.010551472 -0.055820446 -0.011450638 0.019095387 0.041548602
0.032092735 0.10736929 -0.03150791 -0.0903253 -0.055402722 -0.021710915 -0.008609537 -0.037842784
-0.0569569 0.04017032 0.011336917 0.0256485 0.016376318 -0.016669426 -0.033418592 -0.01720925
0.10653548 0.09087237 0.046814814 0.057042137 0.07922074 -0.013741919 0.070228055 -0.0033095595
0.070356 0.06439035 -0.03885657 -0.055281255 0.017544558 0.05851426 -0.063118584 -0.007713042
0.065026365 0.023606595 0.023928504 0.069946736 0.016892646 0.05332721 0.10981558 0.08267744
0.05612605 0.15069252 0.08178516 0.10118163 0.06760978 -0.00021905512 -0.03214476 -0.053771667
-0.034293145 -0.019545147 0.016699588 0.06079885 0.07238596 0.037592683 -0.0117007205 0.04739615
00000000: 106d 16be e811 c437 1f03 d7bb 9347 393c
00000010: 3497 1ebe ae56 3dbe 16b9 11be dacd 47be
00000020: f8de 1bbd b44f 4b3b 9e52 e9bd f93b 33be
00000030: f81a 16bd d069 223d 1c24 bb3d 0acb 60bc
00000040: 153a 23be 82bf f7bd eba1 463d 8ef3 e53b
00000050: 47c4 b8bd 6205 573d 7e26 383e 775f 183e
00000060: d7de 4b3d f335 c93c 28c1 daba e443 78bd
00000070: 36c1 c7bc 3894 e33d fa34 003e ddb5 813d
00000080: 98c7 6a3b c688 bb3b d9ed 863c 5d50 b83c
00000090: 741a dcbd 12a4 89bc 46bc b83d 4b30 333e
000000a0: 40ea dc3d 53b7 d53c fd49 133d 2511 133d
000000b0: f3d7 2f3d c37e 59bd 8940 d7bc 610a 00be
000000c0: ef54 6a3d 1b4f a73d 4794 703d e1bb a03d
000000d0: f842 d5bc 47c2 56bc b731 0bba d0d9 ac3c
000000e0: ee76 303d fcaf 8c3d 6630 0b3e d493 163d
000000f0: c0f9 84bd b2cf 3dbd bb69 35bb 213f a2bd
00000100: 038f cebc 3e0c 1e3d 054d 12bd e28c c73c
00000110: 4866 79bb b9f6 9f3d 141c abbd 6b85 b43c
00000120: 14b6 243d 727a b63d e229 933d a035 c53c
00000130: a004 efbd 7fe3 d8bd 11eb cebc 29f9 81bb
00000140: 23db c4bd 2016 4dbd 73c6 08bd 285f e13d
00000150: 72d8 da3d 1e32 bf3d 38cc ddbd fa5f d9bd
00000160: fe21 38bd 052f 89bc fd8d c23b 7cad 853c
00000170: 3590 753d 45eb 443c 8e26 f33d b044 26bd
00000180: d697 88bd 6fa4 4bbd 18c5 5e3d 0f97 ed3d
00000190: 79a4 0dbc 2fa6 fc3b 4693 c9bc eed0 343c
000001a0: 5b08 a1bd 09ab 1e3d c235 7cba 521d b73d
000001b0: 4bb1 9a3d f12f c43d 87c3 963d bac3 7c3d
000001c0: c54a 133d 8454 c2bd b8aa 1e3d 25fb c03d
000001d0: 0966 1fbd dea0 053d 6ec5 4b3d f0dd 383d
000001e0: 33c8 553d c3d7 a03d d813 1dbb 4238 a7bd
000001f0: 6cb0 24bd 8e15 a0bc ca1d 04be 4bee 06be
00000200: 26d5 8c3d d93d a63d 8c31 e53c 7482 5d3d
00000210: 7865 573d 26a8 51bd c052 013e b6e3 8e3d
00000220: 1fa3 fe3d 6cae 373e 7c3e 9e3c 3f54 2cbd
00000230: f483 a33d 2690 ecbb 4998 01bc bc48 77bd
00000240: 1be4 9fbb 0f61 09bd 332d 203d 9e34 ea3d
00000250: 33db 683d 9203 00bd 2093 12bd e213 d43b
00000260: 742d 9dbc 25c6 343e 2cb8 833d adbd 9cbc
00000270: ba5a d8bd 621b 95bc fbde 0cbb cb08 18be
00000280: cb80 5d3d e560 7e3d 9de9 093e 8a3e 873d
00000290: b913 cd3d e4bd ba3b 8abd 8abd f35c b23d
000002a0: 613c 4e3d 988c 0a3d 16f4 60b9 4952 c53d
000002b0: 2726 19bd 9b33 43bd ca30 efbc d726 e6bd
000002c0: ba74 56bd d30d 143d 35e9 283d 436a 00bd
000002d0: 7933 863d de12 82bc 6ed4 10bc cd17 b13d
000002e0: 03e8 7f3d c42d 8b3d fe21 dd3c 4f61 203d
000002f0: c8d7 823c 70bd 4d3b 41a6 cbbb 5c67 f4bc
00000300: e58c 243b c40d 463d b337 063c 15e0 2cbc
00000310: fba3 64bd 759b 3bbc ee6d 9c3c de2e 2a3d
00000320: ac73 033d 6ee4 db3d 700e 01bd 79fc b8bd
00000330: f7ed 62bd 17db b1bc 040f 0dbc 0901 1bbd
00000340: a34b 69bd a289 243d 7abe 393c ce1c d23c
00000350: a127 863c 528e 88bc efe1 08bd 6afa 8cbc
00000360: 462f da3d 4b1b ba3d e4c0 3f3d 04a5 693d
00000370: 7c3e a23d c925 61bc bad3 8f3d 32e5 58bb
00000380: ce16 903d 16df 833d 1128 1fbd 996e 62bd
00000390: 9bb9 8f3c a6ac 6f3d 5144 81bd b0bd fcbb
000003a0: 8b2c 853d 9e62 c13c b605 c43c 3c40 8f3d
000003b0: 7262 8a3c a26d 5a3d fee6 e03d ca52 a93d
000003c0: 6ee4 653d 244f 1a3e fa7e a73d 5038 cf3d
000003d0: ff76 8a3d 29b2 65b9 39aa 03bd ae3f 5cbd
000003e0: f876 0cbd 251d a0bc 93cd 883c 3708 793d
000003f0: 173f 943d c9fa 193d 61b4 3fbc 7722 423d

fc.bias f4 [2]
0.060930483 -0.05059963
00000000: 3e92 793d 8f41 4fbd
